…
/SSDD/ICIP21_dataset/800_HRSID/split_data_4_0/rl_ver/sample/yolov5_txt.cache (107 found, 0 missing, 133 empty, 0 duplicate, for 240 images): 100%|██████████| 240/240 [00:00<00:00, 30159.48it/s]
  0%|          | 0/240 [00:00<?, ?it/s]Scanning labels /home/SSDD/ICIP21_dataset/800_HRSID/split_data_4_0/rl_ver/sample/yolov5_txt.cache (107 found, 0 missing, 133 empty, 0 duplicate, for 240 images): 100%|██████████| 240/240 [00:00<00:00, 31180.55it/s]
                 from  n    params  module                                  arguments                     
  0                -1  1      8800  yolov5.models.common.Focus              [3, 80, 3]                    
  1                -1  1    115520  yolov5.models.common.Conv               [80, 160, 3, 2]               
  2                -1  1    315680  yolov5.models.common.BottleneckCSP      [160, 160, 4]                 
  3                -1  1    461440  yolov5.models.common.Conv               [160, 320, 3, 2]              
  4                -1  1   3311680  yolov5.models.common.BottleneckCSP      [320, 320, 12]                
  5                -1  1   1844480  yolov5.models.common.Conv               [320, 640, 3, 2]              
  6                -1  1  13228160  yolov5.models.common.BottleneckCSP      [640, 640, 12]                
  7                -1  1   7375360  yolov5.models.common.Conv               [640, 1280, 3, 2]             
  8                -1  1   4099840  yolov5.models.common.SPP                [1280, 1280, [5, 9, 13]]      
  9                -1  1  20087040  yolov5.models.common.BottleneckCSP      [1280, 1280, 4, False]        
 10                -1  1    820480  yolov5.models.common.Conv               [1280, 640, 1, 1]             
 11                -1  1         0  torch.nn.modules.upsampling.Upsample    [None, 2, 'nearest']          
 12           [-1, 6]  1         0  yolov5.models.common.Concat             [1]                           
 13                -1  1   5435520  yolov5.models.common.BottleneckCSP      [1280, 640, 4, False]         
 14                -1  1    205440  yolov5.models.common.Conv               [640, 320, 1, 1]              
 15                -1  1         0  torch.nn.modules.upsampling.Upsample    [None, 2, 'nearest']          
 16           [-1, 4]  1         0  yolov5.models.common.Concat             [1]                           
 17                -1  1   1360960  yolov5.models.common.BottleneckCSP      [640, 320, 4, False]          
 18                -1  1    922240  yolov5.models.common.Conv               [320, 320, 3, 2]              
 19          [-1, 14]  1         0  yolov5.models.common.Concat             [1]                           
 20                -1  1   5025920  yolov5.models.common.BottleneckCSP      [640, 640, 4, False]          
 21                -1  1   3687680  yolov5.models.common.Conv               [640, 640, 3, 2]              
 22          [-1, 10]  1         0  yolov5.models.common.Concat             [1]                           
 23                -1  1  20087040  yolov5.models.common.BottleneckCSP      [1280, 1280, 4, False]        
 24      [17, 20, 23]  1     40374  yolov5.models.yolo.Detect               [1, [[10, 13, 16, 30, 33, 23], [30, 61, 62, 45, 59, 119], [116, 90, 156, 198, 373, 326]], [320, 640, 1280]]

Optimizer groups: 134 .bias, 142 conv.weight, 131 other

                 from  n    params  module                                  arguments                     
  0                -1  1      8800  yolov5.models.common.Focus              [3, 80, 3]                    
  1                -1  1    115520  yolov5.models.common.Conv               [80, 160, 3, 2]               
  2                -1  1    315680  yolov5.models.common.BottleneckCSP      [160, 160, 4]                 
  3                -1  1    461440  yolov5.models.common.Conv               [160, 320, 3, 2]              
  4                -1  1   3311680  yolov5.models.common.BottleneckCSP      [320, 320, 12]                
  5                -1  1   1844480  yolov5.models.common.Conv               [320, 640, 3, 2]              
  6                -1  1  13228160  yolov5.models.common.BottleneckCSP      [640, 640, 12]                
  7                -1  1   7375360  yolov5.models.common.Conv               [640, 1280, 3, 2]             
  8                -1  1   4099840  yolov5.models.common.SPP                [1280, 1280, [5, 9, 13]]      
  9                -1  1  20087040  yolov5.models.common.BottleneckCSP      [1280, 1280, 4, False]        
 10                -1  1    820480  yolov5.models.common.Conv               [1280, 640, 1, 1]             
 11                -1  1         0  torch.nn.modules.upsampling.Upsample    [None, 2, 'nearest']          
 12           [-1, 6]  1         0  yolov5.models.common.Concat             [1]                           
 13                -1  1   5435520  yolov5.models.common.BottleneckCSP      [1280, 640, 4, False]         
 14                -1  1    205440  yolov5.models.common.Conv               [640, 320, 1, 1]              
 15                -1  1         0  torch.nn.modules.upsampling.Upsample    [None, 2, 'nearest']          
 16           [-1, 4]  1         0  yolov5.models.common.Concat             [1]                           
 17                -1  1   1360960  yolov5.models.common.BottleneckCSP      [640, 320, 4, False]          
 18                -1  1    922240  yolov5.models.common.Conv               [320, 320, 3, 2]              
 19          [-1, 14]  1         0  yolov5.models.common.Concat             [1]                           
 20                -1  1   5025920  yolov5.models.common.BottleneckCSP      [640, 640, 4, False]          
 21                -1  1   3687680  yolov5.models.common.Conv               [640, 640, 3, 2]              
 22          [-1, 10]  1         0  yolov5.models.common.Concat             [1]                           
 23                -1  1  20087040  yolov5.models.common.BottleneckCSP      [1280, 1280, 4, False]        
 24      [17, 20, 23]  1     40374  yolov5.models.yolo.Detect               [1, [[10, 13, 16, 30, 33, 23], [30, 61, 62, 45, 59, 119], [116, 90, 156, 198, 373, 326]], [320, 640, 1280]]

Optimizer groups: 134 .bias, 142 conv.weight, 131 other
GPU device for EfficientOD:  True
Starting training for 0 epochs...

  0%|          | 0/10 [00:00<?, ?it/s] 10%|█         | 1/1
…
